machine-learning/pytorch/cnn.pth (torch, 251328 bytes, 10 tensors)

conv1.weight f4 [6, 3, 5, 5]
0	0x3da98f18	0.08279246
1	0xbe6bd56d	-0.23030634
2	0xbf0ba89b	-0.54554147
3	0xbeb16c0f	-0.34652755
4	0xbc566ad4	-0.013086993
5	0xbdb2f8c5	-0.08738855
6	0xbe4c1a0e	-0.19931814
7	0xbe750ee7	-0.23931466
8	0xbe0e4ec0	-0.13897228
9	0xbe6e85fe	-0.23293301
10	0xbe20b0e2	-0.15692475
11	0x3e2378b2	0.1596401
12	0x3e9bcbf5	0.30429044
13	0xbc1d1401	-0.009587289
14	0xbd329458	-0.043598503
15	0x3d0b3cc7	0.03399351
16	0x3e718d99	0.23589171
17	0x3f125ab9	0.5716968
18	0x3ec038de	0.37543386
19	0x3bb3c5ec	0.0054862406
20	0x3d929c09	0.071586676
21	0x3e706c84	0.23478895
22	0x3e4a1b75	0.19737037
23	0x3ec7b23d	0.39003173
24	0x3e3c3cf8	0.18382633
25	0x3e3bc7b1	0.18337895
26	0x3c552c3c	0.013011035
27	0xbea1271b	-0.31475148
28	0xbdfdd8eb	-0.123948894
29	0x3e2dfad3	0.16990213
30	0xbe155f74	-0.14587194
31	0xbda321bf	-0.07965421
32	0xbe0897be	-0.13339135
33	0xbdc1fa0f	-0.09471523
34	0x3dcfd6df	0.10148405
35	0xbe89bb59	-0.26900747
36	0x3e0ed7fa	0.13949576
37	0x3e8a68ac	0.27032983
38	0x3ceb59d0	0.02872935
39	0xbe30b226	-0.17255458
40	0xbe801db0	-0.2502265
41	0x3e30994d	0.1724598
42	0x3ebd4ab8	0.36971068
43	0x3dbed36c	0.09317669
44	0xbe972d50	-0.29526758
45	0xbd83fad8	-0.06444329
46	0xbb279296	-0.002556955
47	0x3dc6272b	0.096754394
48	0xbd6b5ab2	-0.05745954
49	0xbdb15a7c	-0.08659837
50	0x3e352fe4	0.1769405
51	0xbc1d52c4	-0.009602252
52	0xbeb63605	-0.3558809
53	0xbdeec6fa	-0.116590455
54	0x3d86a4a1	0.06574369
55	0x3d9ba05f	0.07598948
56	0x3d70b17a	0.058763005
57	0xbd72d46c	-0.059284613
58	0xbcee668b	-0.02910163
59	0x3d316798	0.043311685
60	0xbe8f539f	-0.27993485
61	0x3e2d0853	0.16897707
62	0x3f0bbfe2	0.54589665
63	0x3e957050	0.2918725
64	0xbd160d01	-0.036633495
65	0xbe3c7e17	-0.18407474
66	0x3e89252b	0.2678617
67	0x3f0edb79	0.5580364
68	0x3e9588d8	0.29205966
69	0xbd157d9e	-0.03649675
70	0xbd250722	-0.040290006
71	0x3e39322e	0.18085548
72	0x3e0dcda0	0.13847971
73	0x3e74949d	0.23884816
74	0xbd449014	-0.047988966
75	0x3dcd38e3	0.10020616
76	0x3ee5bcba	0.4487055
77	0x3e61e0e5	0.22058447
78	0x3edb50b9	0.42835024
79	0xbb0cb005	-0.002146722
80	0x3eeb4fdf	0.45959374
81	0x3f8276c9	1.01925
82	0x3f280a6e	0.65640914
83	0x3ee5409e	0.44775862
84	0x3e0452fe	0.12922284
85	0xbdf48106	-0.11938672
86	0xbeb39f4a	-0.35082465
87	0xbf1e6ae2	-0.6188184
88	0xbecd3351	-0.40078214
89	0x3e1658b5	0.14682277
90	0xbe5e9d1a	-0.21739617
91	0xbe4292ae	-0.19001266
92	0xbeada943	-0.339182
93	0xbecb177b	-0.39666352
94	0x3e40a618	0.1881336
95	0xbd86e2ac	-0.06586203
96	0x3d6d7df1	0.057981435
97	0xbd8c6682	-0.06855489
98	0xbec374a5	-0.3817493
99	0xbec4aed6	-0.3841464
100	0xbe2b3138	-0.16717994
101	0x3ef17ef3	0.47167167
102	0x3e767b91	0.24070574
103	0x3e52086f	0.2051103
104	0xbe8e508b	-0.27795824
105	0x3d60b59c	0.054860696
106	0x3f28ccee	0.659377
107	0x3eb692ed	0.3565897
108	0x3dd2799e	0.10277103
109	0xbe3a965c	-0.1822142
110	0xbefcc1ea	-0.49366695
111	0xbf2d245d	-0.6763361
112	0xbf7e9abc	-0.99454856
113	0xbed64e3b	-0.4185656
114	0xbdac07ab	-0.083999
115	0xbe03de2f	-0.12877725
116	0xbecadbdd	-0.39620867
117	0xbef02faa	-0.46911365
118	0xbde13d64	-0.109980375
119	0x3e39ba8e	0.18137571
120	0x3e851c01	0.25997928
121	0x3e894ab3	0.26814803
122	0x3e9a923a	0.30189687
123	0x3da3c70c	0.079969496
124	0xbe0efeee	-0.13964435
125	0xbd9425c7	-0.07233768
126	0x3e3196d3	0.17342691
127	0x3bcc59c0	0.006236285
128	0x3e6d6720	0.2318387
129	0xbe85e1d2	-0.2614885
130	0xbd18732c	-0.03721921
131	0x3e80dd19	0.25168684
132	0x3eb23a4a	0.34810096
133	0x3e7afea7	0.24511205
134	0xbe7ed9f1	-0.24887826
135	0xbed1d4fd	-0.4098281
136	0xbf1b2018	-0.60595846
137	0xbf2f9b0d	-0.68595964
138	0xbea27caf	-0.3173575
139	0xbc1e80f8	-0.009674303
140	0x3b230942	0.0024877344
141	0xbe544988	-0.20731175
142	0xbc205a49	-0.009787151
143	0x3e895d5b	0.26829037
144	0x3eb5c7dd	0.35504046
145	0x3e435381	0.19074823
146	0x3e92ccf3	0.2867199
147	0x3f29b684	0.6629412
148	0x3e91793b	0.28412804
149	0x3e0d0c0f	0.13774131
150	0x3df5871a	0.11988659
151	0x3e8b5e21	0.27220252
152	0x3ecfc69d	0.40581217
153	0x3eaad562	0.33365923
154	0x3e7356b3	0.23763542
155	0x3e26eb36	0.16300663
156	0x3e8e1327	0.27748987
157	0x3e981c63	0.29709157
158	0x3d74a998	0.05973205
159	0x3d317caf	0.0433318
160	0x3e3edf2c	0.18639821
161	0x3ed12a48	0.4085257
162	0x3e67a6c2	0.22622207
163	0xbe103f04	-0.14086539
164	0xbbff1579	-0.007784542
165	0x3d2732b2	0.04081983
166	0x3e7f7478	0.24946773
167	0x3e1305d0	0.14357686
168	0xbd9e25e0	-0.07722068
169	0xbe734d17	-0.23759876
170	0xbe361153	-0.17780046
171	0x39f67f9f	0.00047015861
172	0xbd0fbb04	-0.03509046
173	0xbea18f7f	-0.3155479
174	0xbe7c4bea	-0.24638334
175	0xbe6a9698	-0.2290901
176	0xb989eaeb	-0.00026305704
177	0xbe5b3b6b	-0.21409385
178	0xbe838e14	-0.25694335
179	0xbe530c70	-0.20610213
180	0xbe4242c2	-0.18970779
181	0x3dd97444	0.10617879
182	0xbe9ad871	-0.30243257
183	0xbf0d785e	-0.5526179
184	0xbedd7f69	-0.4326127
185	0xbd1110a4	-0.03541626
186	0x3d718353	0.05896313
187	0xbe054739	-0.1301545
188	0xbf145b83	-0.57952136
189	0xbf17dd0a	-0.59321654
190	0x3d2f2ce9	0.04276744
191	0x3c8e55dc	0.017374925
192	0xbe09b8cd	-0.13449402
193	0xbf04a9e1	-0.51821715
194	0xbe87c78d	-0.26519433
195	0x3dd2798b	0.10277089
196	0x3d93a390	0.072089314
197	0x3d881a07	0.06645589
198	0xbe85040c	-0.2597965
199	0xbdaf28f4	-0.08552733
200	0xbda3cb22	-0.07997729
201	0x3e409a29	0.18808807
202	0xbd0a1e48	-0.033720285
203	0xbdcbacd2	-0.09945072
204	0xbd1513e9	-0.03639594
205	0x3cdbeead	0.026847208
206	0x3e974f80	0.2955284
207	0x3cc2266f	0.023699967
208	0xbe8559b3	-0.26044998
209	0xbdbda6ba	-0.09260316
210	0x3e84707e	0.25867075
211	0x3ec783db	0.38967785
212	0xbd1325c3	-0.035924684
213	0xbf0bea9d	-0.54654866
214	0xbe8df0e6	-0.27722853
215	0x3e1ffd67	0.15624009
216	0x3eb5e1f0	0.3552394
217	0x3d8fa4ff	0.070138924
218	0xbeb99418	-0.362458
219	0xbe829a77	-0.25508472
220	0x3ee6d672	0.45085484
221	0x3e990780	0.29888535
222	0x3e5095c2	0.20369628
223	0x3cf8649a	0.030321408
224	0x3e1b9ee8	0.15197337
225	0x3d4d28f0	0.05008787
226	0x3d5ec1d2	0.05438406
227	0xbe73240d	-0.23744221
228	0x3e11a7c6	0.14224157
229	0x3daf1324	0.08548573
230	0x3e80dfbb	0.25170693
231	0xbe89e8e4	-0.26935494
232	0xbf19015e	-0.5976771
233	0x3f3b9ea5	0.7328895
234	0xbe56173e	-0.20907304
235	0x3f0b9e08	0.5453801
236	0xbee798c3	-0.45233735
237	0xbf40a57f	-0.75252527
238	0x3f85f5df	1.0465659
239	0xbe9fcbba	-0.3121012
240	0x3e8de15d	0.27711
241	0xbe8bbf28	-0.27294278
242	0xbf19e90c	-0.60121226
243	0x3f34a636	0.7056612
244	0xbd2cee61	-0.042219523
245	0x3badf85a	0.005309147
246	0xbd80a560	-0.06281543
247	0xbe848ad6	-0.25887173
248	0x3e2daac7	0.16959678
249	0x3d0e5e0f	0.03475767
250	0x3cf4444f	0.029817728
251	0xbd684572	-0.056706853
252	0xbeb6442e	-0.35598892
253	0x3e698f8a	0.22808662
254	0xbd67a7e7	-0.05655661
255	0x3ed5773d	0.41692534

conv1.bias f4 [6]
0	0x3ef69d6e	0.48166984
1	0xbea97708	-0.33098626
2	0xbeb09997	-0.3449218
3	0xbda983ad	-0.08277068
4	0x3ecac788	0.39605355
5	0x3f811b22	1.0086405

conv2.weight f4 [16, 6, 5, 5]
0	0xbed20028	-0.41015744
1	0xbceb0ed4	-0.028693594
2	0x3e64799e	0.22312018
3	0x3ee54657	0.44780228
4	0x3ed1597e	0.4088859
5	0xbe64ea08	-0.22354901
6	0xbe0718de	-0.1319308
7	0x3d2c9829	0.0421373
8	0x3d446b70	0.047954023
9	0x3e93ba89	0.28853253
10	0xbe4c03e5	-0.1992336
11	0xbe925a24	-0.28584397
12	0xbe3cba1c	-0.1843037
13	0x3da34020	0.07971215
14	0x3e2d743e	0.16938874
15	0xbec261f8	-0.3796537
16	0xbdd44fee	-0.10366808
17	0xbd99676a	-0.07490428
18	0x3d838038	0.0642094
19	0x3e416858	0.1888746
20	0xbeaf939f	-0.34292313
21	0xbdef2a85	-0.11678032
22	0x3d1588ac	0.036507294
23	0x3e4b76af	0.19869493
24	0x3e1b50ec	0.15167588
25	0xbd8d3e8d	-0.06896696
26	0xbd3878e8	-0.04503718
27	0xbe8c9e43	-0.27464494
28	0x3d2b8638	0.041876048
29	0x3e45da89	0.19321646
30	0xbde0c3cb	-0.109748445
31	0xbe699de5	-0.22814138
32	0xbd92a1cc	-0.071597666
33	0x3eb97a5d	0.36226168
34	0x3e4ff51b	0.20308344
35	0xbe679764	-0.22616345
36	0xbd316b04	-0.04331495
37	0xbe19ba59	-0.15012492
38	0xbc3f0a53	-0.011660176
39	0x3e3485a6	0.17629108
40	0xbe57ce8d	-0.21074887
41	0xbdd1dffb	-0.10247799
42	0xbde35ab5	-0.11101285
43	0xbdec1a0a	-0.11528404
44	0xbda87b67	-0.08226662
45	0xbe46fce3	-0.19432406
46	0xbe507b8b	-0.20359628
47	0xbbc2598e	-0.005931086
48	0xbe0c0cf1	-0.13676812
49	0xbe0f1cd2	-0.13975838
50	0x3d870a70	0.06593788
51	0x3c6cb307	0.01444698
52	0x3c2227b0	0.009897158
53	0x3d8b4776	0.068007395
54	0xbc482b71	-0.0122173885
55	0xbca11b44	-0.019666322
56	0xbc842212	-0.016129527
57	0xbc6e539b	-0.0145463
58	0xbcaf25c0	-0.021380305
59	0x3dc5cdb7	0.096583776
60	0x3db91060	0.090363264
61	0xbd0b5e49	-0.034025464
62	0xbe1f722f	-0.15570901
63	0xbc94263d	-0.01808464
64	0x3c57fc8d	0.013182771
65	0x3c25f578	0.010129325
66	0xbe1418fb	-0.14462654
67	0x3d3f039e	0.04663431
68	0xbcf14474	-0.029451586
69	0xbd3c4fbb	-0.045974474
70	0x3e069e3a	0.13146296
71	0xbc1204b5	-0.008912255
72	0x3dbbd157	0.09170788
73	0x3dfb45f4	0.12269202
74	0x3e37cb18	0.17948568
75	0xbad87b05	-0.0016516155
76	0xbe1c9f08	-0.1529504
77	0xbe1486db	-0.14504568
78	0xbcdb7df5	-0.02679346
79	0xbe3510c6	-0.1768218
80	0xbce124d9	-0.02748339
81	0x3d303462	0.043018706
82	0x3c6ba467	0.014382458
83	0x3d82a520	0.06379151
84	0xbda8fac1	-0.082509525
85	0xbcca8645	-0.024722228
86	0x3df20c1c	0.11818716
87	0x3cbcd53e	0.0230509
88	0x3df50fc1	0.119658954
89	0x3deeadb4	0.11654225
90	0xbd84ffef	-0.06494128
91	0x3cfc6236	0.03080855
92	0x3da460c2	0.080262676
93	0x3d4d10ee	0.050064974
94	0xbcac4491	-0.021028789
95	0x3e14a7be	0.14517114
96	0x3ddbd559	0.10734052
97	0xbd4f3d0c	-0.05059533
98	0x3d9ee6af	0.07758843
99	0xbdabc729	-0.08387596
100	0x3ed4c70c	0.4155811
101	0x3dd97781	0.10618497
102	0x3db202ad	0.086919166
103	0xbe77da29	-0.24204315
104	0xbe9e7120	-0.30945683
105	0x3ed98595	0.42484728
106	0x3e0f0662	0.13967279
107	0xbe47d733	-0.19515686
108	0xbe62d4fd	-0.22151561
109	0xbde5d824	-0.11222866
110	0x3e90e260	0.2829771
111	0x3c88faf5	0.016721228
112	0xbe25a867	-0.16177522
113	0xbe9b5384	-0.30337155
114	0xbe45426c	-0.19263619
115	0x3eb46102	0.3523026
116	0x3e28a338	0.16468513
117	0xbdd05c84	-0.10173896
118	0xbe8090c9	-0.25110462
119	0xbe2d41d9	-0.1691965
120	0x3ead2fb6	0.33825463
121	0xbd9afd39	-0.0756783
122	0xbd3d7827	-0.046257164
123	0xbdd0c967	-0.101946644
124	0x3de0e63a	0.10981412
125	0xbe7c3ce6	-0.24632606
126	0xbea6abb3	-0.3255287
127	0xbdf403d0	-0.1191479
128	0x3e77cbf8	0.24198902
129	0x3eeaa48b	0.4582866
130	0xbea79623	-0.32731733
131	0xbee19f58	-0.44066882
132	0xbe2bdc7c	-0.16783327
133	0x3e71eb3b	0.2362489
134	0x3ee090c7	0.43860456
135	0xbeb70f6c	-0.35753953
136	0xbec30069	-0.3808625
137	0xbe221c12	-0.1583102
138	0x3e06d362	0.13166574
139	0x3ee203a1	0.44143394
140	0xbe8813e8	-0.26577687
141	0xbe9cb63f	-0.30607793
142	0xbdd8dba6	-0.105887696
143	0x3e669da7	0.22521077
144	0x3ed3cfbc	0.41369426
145	0x3d3569af	0.04429024
146	0xbe0069be	-0.12540337
147	0x3cebcbd2	0.028783713
148	0x3d3fede0	0.046857715
149	0x3e689cfe	0.22716138
150	0x3d92e550	0.07172644
151	0xbdff002a	-0.12451203
152	0xbe860543	-0.2617589
153	0xbe1513b8	-0.14558303
154	0xbda9e0b4	-0.08294812
155	0x3e2cdce9	0.16881146
156	0x3e0a760b	0.13521592
157	0xbd11ea65	-0.035623927
158	0xbe9e7d56	-0.30955
159	0xbe357ef2	-0.17724207
160	0x3c26f99e	0.010191349
161	0x3e3816b0	0.17977405
162	0x3e326ac4	0.1742354
163	0xbdaeaaab	-0.08528646
164	0xbe416c99	-0.18889083
165	0x3ccb3c36	0.024808984
166	0x3b830676	0.003998573
167	0x3d57c243	0.052675497
168	0x3d9fa064	0.07794264
169	0xbd76934e	-0.060199074
170	0x3de0899d	0.10963748
171	0x3e1d0883	0.15335278
172	0x3da3669a	0.07978554
173	0x3e5c660a	0.215233
174	0x3ac5c2b1	0.001508793
175	0xbe0dbdab	-0.13841884
176	0x3e3bdc28	0.18345702
177	0x3e888c63	0.26669607
178	0xbd9c2348	-0.07623917
179	0xbdf797f1	-0.120895274
180	0xbe545bb2	-0.20738104
181	0xbda9f274	-0.082981974
182	0x3e042c0f	0.12907432
183	0x3eb7a3a3	0.35867032
184	0xbd952b2f	-0.07283627
185	0xbe2e0042	-0.16992286
186	0xbe34efa4	-0.1766954
187	0xbe9e1ca5	-0.3088123
188	0xbd9ba625	-0.07600049
189	0x3ddd57df	0.10807776
190	0xbe476a56	-0.19474158
191	0xbcc13670	-0.023585528
192	0xbe46ac29	-0.19401611
193	0xbe85c4b9	-0.2612665
194	0x3e42bc44	0.1901713
195	0xbe74d660	-0.23909903
196	0xbd67125f	-0.056414004
197	0xbdf482ef	-0.11939036
198	0xbe87bbf4	-0.26510584
199	0xbdd3ac2d	-0.10335574
200	0x3eb664bc	0.3562373
201	0x3e5b6164	0.2142387
202	0xbdf36915	-0.11885277
203	0x3d2eb245	0.04265048
204	0xbdeff3f7	-0.117164545
205	0xbc9c288d	-0.019062305
206	0x3e533c3f	0.20628451
207	0x3e56e630	0.20986247
208	0xbe23fd9d	-0.16014715
209	0xbe75fd15	-0.24022324
210	0xbc942ff5	-0.018089274
211	0x3dd3f2be	0.10349034
212	0x3eab9fbd	0.33520308
213	0x3d691611	0.05690581
214	0xbd86cb1c	-0.06581709
215	0x3db63482	0.08896734
216	0x3cbdbed6	0.023162287
217	0x3e280b76	0.16410622
218	0x3e52d08c	0.20587367
219	0x3d129c6e	0.035793714
220	0xbe0d0b11	-0.13773753
221	0xbe1d6602	-0.15370944
222	0xbdbf6ef0	-0.093473315
223	0x3e142a0a	0.14469162
224	0x3d8f5776	0.06999104
225	0x3e0af853	0.1357129
226	0x3dfa7908	0.12230116
227	0xbbc2cefd	-0.005945085
228	0x3c033238	0.008007579
229	0xbc8ffb5c	-0.017575912
230	0xbd93143f	-0.07181596
231	0x3c30a760	0.010782093
232	0x3d9d2875	0.07673732
233	0x3e2e51d9	0.1702341
234	0xbcad2ec5	-0.021140466
235	0x3b4cde26	0.003126034
236	0xbdccd0ba	-0.10000749
237	0x3de4ba00	0.11168289
238	0x3e63319d	0.22186895
239	0xbcfba8d4	-0.030720152
240	0xbc3f9a04	-0.011694435
241	0x3d528244	0.051393762
242	0xbc961a4f	-0.018323092
243	0x3d1e3de3	0.03863324
244	0x3dd5d80e	0.104416
245	0x3dd944ef	0.10608851
246	0xbd9a98c5	-0.0754867
247	0xbd9d67a4	-0.076857835
248	0x3d561b80	0.05227232
249	0xbc26d0cd	-0.010181618
250	0x3dda69c0	0.106647015
251	0x3e25d06c	0.16192788
252	0x3c992720	0.018695414
253	0xbd01b2c8	-0.03166464
254	0xbe7af3ad	-0.24507017
255	0xbe57e00f	-0.21081565

conv2.bias f4 [16]
0	0xbdddd0ee	-0.10830866
1	0x3e328933	0.1743515
2	0xbf862220	-1.0479164
3	0x3d43982f	0.047752555
4	0x3ebec3b2	0.3725868
5	0x3ea6b2e3	0.32558355
6	0x3f967b65	1.1756407
7	0xbee3e860	-0.44513226
8	0xbe9957a9	-0.29949692
9	0xbe802751	-0.25029996
10	0x3cfb6bc2	0.030691031
11	0xbe01878a	-0.1264936
12	0xbf0d3f51	-0.5517474
13	0xbdb5407e	-0.088501915
14	0xbd8b43c2	-0.06800033
15	0xbe8958ef	-0.26825663

fc1.weight f4 [120, 400]
0	0x3ce83190	0.028343946
1	0xbe24a1dc	-0.1607737
2	0xbc7148aa	-0.014726797
3	0xbcf848d4	-0.030308165
4	0xbcfaa666	-0.030596923
5	0xbd2db45a	-0.042408325
6	0xbde41bac	-0.111380905
7	0x3c57d0ed	0.01317237
8	0x3d00a4bb	0.0314071
9	0x3d1eb368	0.038745314
10	0x3d37d677	0.044882264
11	0xbd66cd6d	-0.056348253
12	0x3d6204c7	0.055180337
13	0xbcd23ec0	-0.025664687
14	0x3d831b7f	0.06401729
15	0x3d2ed30d	0.042681742
16	0xbb01001d	-0.0019683905
17	0xbd0c0510	-0.034184515
18	0x3cfaf6ce	0.030635264
19	0xbd342aea	-0.04398624
20	0x3e0ddf33	0.13854675
21	0x3d86f001	0.06588746
22	0x3cd08e75	0.025458554
23	0x3daefb41	0.08544017
24	0x3d29d8eb	0.041466635
25	0xbba71ebf	-0.0051001008
26	0xbd0ac479	-0.033878777
27	0x3e62d277	0.22150598
28	0x3d9f4327	0.0777648
29	0xbba4e1b3	-0.0050317883
30	0x3db74414	0.08948532
31	0x3ae1b07f	0.0017218738
32	0x3d9c03cc	0.07617912
33	0x3e126f39	0.1430024
34	0xbcca2311	-0.024674924
35	0x3c9d8d97	0.019232554
36	0xbb4f028a	-0.0031587207
37	0xbcf7f1c0	-0.030266643
38	0x3c98d04b	0.01865401
39	0x3c4ece1d	0.012622383
40	0xbd216ec8	-0.03941229
41	0xbc966c32	-0.018362138
42	0xbd1acbed	-0.037792135
43	0xbd633e26	-0.05547919
44	0xbc349047	-0.0110207265
45	0x3da6da6f	0.08147132
46	0x3a22ef81	0.00062154984
47	0xbc1a850a	-0.009431133
48	0x3cb9565d	0.022624189
49	0x3dd34cb1	0.10317362
50	0xbb8e8ec8	-0.004350517
51	0xbbed8865	-0.0072489255
52	0xbce2a2a6	-0.027665447
53	0x3d436fc8	0.047714025
54	0x3d58f2a9	0.052965794
55	0xbccfa42e	-0.025346842
56	0xbccd1074	-0.02503226
57	0x3d402c6f	0.046917375
58	0x3dbce3b4	0.092231184
59	0x3d8f3cb3	0.06993999
60	0xbde26f36	-0.11056368
61	0xbd628f6e	-0.055312566
62	0x3b30fd20	0.0027006343
63	0x3d2bc91c	0.04193984
64	0xbd85ccda	-0.06533213
65	0xbd7726bd	-0.060339678
66	0xbd5568be	-0.052101843
67	0xbcd53757	-0.026027365
68	0x3cff5686	0.031169187
69	0x3ba84aa7	0.0051358524
70	0xbd8cbb52	-0.06871666
71	0xbd4e7d43	-0.050412428
72	0xbbd90590	-0.0066229776
73	0xbd7dfb32	-0.062007137
74	0xbc37e268	-0.011223413
75	0xbdf56c92	-0.11983599
76	0x3bf0971a	0.0073422315
77	0xbcab518c	-0.020912908
78	0x3d894890	0.06703293
79	0x3cd068aa	0.025440533
80	0xbd6824d3	-0.056675743
81	0x3b46e37f	0.0030348
82	0x3d3d8a7e	0.046274655
83	0xbc8afb95	-0.016965667
84	0x3cd102a9	0.025513964
85	0xbce379f9	-0.027768122
86	0xbccdb48e	-0.02511051
87	0xbd630186	-0.055421375
88	0xbcd787f4	-0.026309945
89	0x3d6fd706	0.05855467
90	0x3cf9f6c7	0.03051318
91	0xbcdf1322	-0.027230803
92	0x3d8655ba	0.0655932
93	0x3b377807	0.0027995126
94	0xbd0df84f	-0.034660634
95	0xbccd243a	-0.025041688
96	0x3c8689ba	0.016423095
97	0x3e208574	0.15675908
98	0x3dbd77a0	0.09251332
99	0x3cd1ddb5	0.025618413
100	0xbcb03fb6	-0.021514755
101	0xbdc6f1c7	-0.09714084
102	0xbcad1594	-0.021128453
103	0x3cebe35a	0.028794933
104	0xbc54bf76	-0.012985101
105	0x3d336286	0.04379513
106	0xbc20f2f4	-0.00982355
107	0x3ca82d21	0.020529332
108	0x3c44a6b7	0.012002639
109	0x3b99f3dc	0.0046982598
110	0xbc3e2173	-0.011604655
111	0x3d3fa4b5	0.046787936
112	0xbc995c7f	-0.018720863
113	0xbda1cd7a	-0.0790052
114	0xbae21411	-0.0017248412
115	0x3d02b19f	0.031907674
116	0x3d81a28a	0.0632983
117	0xbd224938	-0.039620608
118	0x3bdf5687	0.006815735
119	0x3da27c01	0.07933808
120	0xbc818744	-0.01581157
121	0xbdbacc54	-0.09121004
122	0xbd3b7edf	-0.04577529
123	0x3dd4b7b2	0.103865996
124	0x3ba0cffa	0.0049076052
125	0x3b8bf976	0.0042716814
126	0xbdbc5f0a	-0.09197815
127	0xbc1b3198	-0.009472273
128	0x3d7c9474	0.061665013
129	0x3d699ac2	0.057032354
130	0x3d0d31dd	0.03447138
131	0xbdcfb74d	-0.10142384
132	0x3d18f8cf	0.037346657
133	0x3d183079	0.037155602
134	0x3d5f62a1	0.05453742
135	0x3ce7044d	0.028200293
136	0x3d4d759e	0.050160997
137	0xbd44f013	-0.048080515
138	0xbaf443f3	-0.0018635973
139	0x3bc833b0	0.0061096773
140	0xb9f2a05d	-0.00046277317
141	0xbcd84d93	-0.026404178
142	0x3d765037	0.060135093
143	0x3d8216d5	0.06352011
144	0x3d72cc67	0.059276965
145	0xbda91c12	-0.08257307
146	0x3d9c552b	0.07633432
147	0x3dafc08f	0.085816495
148	0xbc3bca64	-0.011461828
149	0xbdd9efab	-0.10641416
150	0x3c13c09f	0.009018092
151	0x3d8f30be	0.06991719
152	0x3d5884c0	0.052860975
153	0x3d51e195	0.051240522
154	0x3d0b08e1	0.033944014
155	0x3cc35c17	0.023847623
156	0xbd2e454e	-0.042546563
157	0x3d887b37	0.06664126
158	0x3c3be71b	0.011468674
159	0xbd10ced0	-0.03535348
160	0xbd7098c6	-0.058739446
161	0xbdf6223f	-0.12018251
162	0x3a1f8ae0	0.00060860626
163	0xbd34797c	-0.04406117
164	0xbca496c4	-0.020091422
165	0xbdb1065c	-0.08643791
166	0xbdae5bc3	-0.08513596
167	0xbd8f54ec	-0.069986194
168	0x3c7aec28	0.015315093
169	0xbaead9f7	-0.0017917742
170	0xbab79360	-0.0014005713
171	0xbd0f7382	-0.035022266
172	0xbd1ec192	-0.03875882
173	0xbd3fd9c7	-0.046838548
174	0xbd804d17	-0.06264704
175	0xbdb21eea	-0.08697303
176	0x3cd2dd96	0.025740426
177	0xbc9b94ca	-0.018991847
178	0x3c994337	0.018708808
179	0xbd8b6ccf	-0.06807863
180	0x3d8a5023	0.06753566
181	0x3d12698d	0.035745192
182	0xbd719ecb	-0.058989327
183	0x3d2076f1	0.03917593
184	0x3da34a29	0.07973129
185	0x3dbc79e3	0.092029355
186	0x3ca1693f	0.019703506
187	0x3cd99ddb	0.02656453
188	0xbd0ee607	-0.03488734
189	0xbdab1fe6	-0.083556935
190	0x3de9c937	0.11415332
191	0x3d972c81	0.07381535
192	0x3c89b071	0.016807767
193	0x3ae1b6c3	0.0017220605
194	0xbd1a1c34	-0.037624553
195	0xbd190894	-0.037361696
196	0x3d1b0274	0.037844136
197	0xbd7aa127	-0.061188843
198	0xbc53e0c9	-0.012932011
199	0xbd2061ca	-0.03915576
200	0xbcd51cf3	-0.02601478
201	0xbd85582c	-0.06510958
202	0x3d078ed5	0.0330952
203	0xbc32370a	-0.01087738
204	0x3c7b982a	0.015356103
205	0xbd63d95e	-0.05562722
206	0xbdaa916f	-0.083285205
207	0xbcae5896	-0.021282475
208	0x3d7c2318	0.061556906
209	0x3d784cf7	0.060620274
210	0xbd875f8d	-0.06610022
211	0xbd498dcc	-0.049207494
212	0xbd0c8a22	-0.03431142
213	0xbd17a629	-0.037023697
214	0xbcd38a7d	-0.025822872
215	0x3b0dbb0f	0.0021626388
216	0xbd91e5ae	-0.07123886
217	0xbcef2449	-0.029192107
218	0x3d927d43	0.07152798
219	0x3d3d5e28	0.046232373
220	0xbd2203ef	-0.039554533
221	0xbe0709c7	-0.13187324
222	0xbcf348bd	-0.02969777
223	0x3da8ee8c	0.08248624
224	0x3cd0d7bb	0.025493493
225	0xbe1188fd	-0.14212413
226	0xbc84133c	-0.016122453
227	0xbd28c856	-0.04120668
228	0xbd060141	-0.03271604
229	0xbcc70c5d	-0.024297887
230	0xbc7bffe1	-0.0153808305
231	0xbdacb96f	-0.08433806
232	0x3d996f76	0.074919626
233	0xbd0ecb36	-0.034861766
234	0xbd4c5be3	-0.049892318
235	0xbcaaeb23	-0.020864075
236	0xbbfa7a39	-0.0076439646
237	0xbca59a07	-0.020215048
238	0x3da7bcf6	0.08190338
239	0x3cd9b5cd	0.026575947
240	0xbd00f84d	-0.031486798
241	0xbd5a6272	-0.05331654
242	0xbd74ec33	-0.05979557
243	0x3b993110	0.004675038
244	0xbd4798b1	-0.048729602
245	0x3d8723fc	0.0659866
246	0x3cc11115	0.023567716
247	0xbcb14992	-0.021641526
248	0x3dc7c05f	0.09753489
249	0x3d87c1b0	0.0662874
250	0x3bc27632	0.0059345
251	0xbd44d992	-0.048059054
252	0xbc21c073	-0.009872544
253	0xbc65017f	-0.0139774075
254	0xbc730310	-0.014832273
255	0x3c1a410a	0.009414921

fc1.bias f4 [120]
0	0x3c856b30	0.016286463
1	0x3d256d8f	0.040387686
2	0x3d8fe09f	0.07025265
3	0x3e14b454	0.14521915
4	0x3c83ac92	0.016073499
5	0x3db5926a	0.08865817
6	0xbdd0f956	-0.10203807
7	0x3d57c9b8	0.05268261
8	0x3ca8b483	0.020593887
9	0xbd33569b	-0.043783765
10	0x3b100237	0.0021973976
11	0x3c4c5157	0.012470565
12	0x3d76867e	0.060186855
13	0xbd1daa4e	-0.038492493
14	0x3d94eb6b	0.07271465
15	0xba18ba5d	-0.000582611
16	0xbd308f52	-0.04310543
17	0x3d92ae69	0.07162172
18	0x3cdf9cb2	0.027296398
19	0xbd1167ee	-0.035499506
20	0xbd20c1cb	-0.039247315
21	0x3de6c011	0.112671025
22	0x3ccbdd6b	0.024885854
23	0x3c23b292	0.009991305
24	0x3d86c0e5	0.065797605
25	0xbc868fe1	-0.016426029
26	0xbdcf3851	-0.101181634
27	0x3dbed7c9	0.093185015
28	0x3d72b8b0	0.059258163
29	0x3de9f11b	0.1142294
30	0xbd025255	-0.0318168
31	0xbe32ac43	-0.17448525
32	0xbd2f1ab5	-0.04275008
33	0xbe34ce4f	-0.17656825
34	0x3b5e2536	0.0033896691
35	0xbd840963	-0.06447103
36	0x3d9dbc6d	0.07701955
37	0x3dfea7bc	0.124343365
38	0xbd81079a	-0.06300278
39	0xbd4e49bf	-0.0503633
40	0x3dadd873	0.0848855
41	0x3dc0cba0	0.094138384
42	0x3c8643c9	0.016389744
43	0x3e1af31b	0.151318
44	0xbc2011a6	-0.009769833
45	0xbc0916bf	-0.0083672395
46	0x3ceb2dca	0.028708357
47	0x3c9d8c93	0.01923207
48	0x3e2690b5	0.16266139
49	0x3e15ad12	0.14616802
50	0xbd96bc7c	-0.07360169
51	0x3e3af34c	0.18256873
52	0x3d89e577	0.0673322
53	0xbcc59a78	-0.024121508
54	0xbd697478	-0.05699584
55	0x3e0ca120	0.1373334
56	0xbe560e1f	-0.20903824
57	0xbc99cd70	-0.018774718
58	0x3d09916f	0.033585962
59	0x3ce98f9a	0.028510857
60	0xbe2a5923	-0.16635565
61	0xbd65acbb	-0.05607293
62	0xbd47e669	-0.04880372
63	0x3db2f5bd	0.08738277
64	0x3d45aeb1	0.0482623
65	0x3b7f6dce	0.003897536
66	0x3ca37787	0.019954456
67	0x3c8b2095	0.01698331
68	0x3d86230d	0.06549654
69	0xbdb25cb9	-0.08709092
70	0xbcdc1968	-0.026867583
71	0x3d97279f	0.07380604
72	0x3e051bc3	0.12998872
73	0xbce023e6	-0.027360868
74	0x3ca76907	0.020435823
75	0x3e23a558	0.15981042
76	0x3daf5950	0.08561957
77	0xbd891854	-0.06694093
78	0x3e377a60	0.17917776
79	0xbe10222c	-0.14075536
80	0xbd91d84a	-0.07121332
81	0xbd06071a	-0.032721616
82	0xbe1f4f45	-0.15557583
83	0x3ce38726	0.027774405
84	0xbd5aa18a	-0.053376712
85	0x3b9fae2d	0.0048730583
86	0x3dbe77ae	0.09300171
87	0x3ced90bf	0.028999684
88	0x3dfc46d4	0.12318197
89	0xbdb81868	-0.0898903
90	0xbe033d90	-0.12816453
91	0x3d9e8e8d	0.07742033
92	0x3e0b7dfe	0.13622281
93	0x3d6a0ff6	0.057144128
94	0x3dfbe84b	0.12300166
95	0xbd704347	-0.05865791
96	0xbd8e0786	-0.06935029
97	0x3ca12ac5	0.019673714
98	0xbd60f94e	-0.054925255
99	0xbd187c92	-0.037228175
100	0xbd804449	-0.06263024
101	0xbd9cd367	-0.07657509
102	0x3cd8ea60	0.026478946
103	0xbd954138	-0.0728783
104	0x3d22ee20	0.039777875
105	0xbd277b7a	-0.04088924
106	0x3e567324	0.2094236
107	0x3e0a5902	0.13510516
108	0x3c0d342b	0.008618395
109	0x3d5d31cb	0.054002564
110	0xbd739d96	-0.059476458
111	0x3d664b2f	0.056224044
112	0x3dd55a9f	0.10417675
113	0xbcaf6fed	-0.021415675
114	0x3d96cdbf	0.07363462
115	0xbe037d10	-0.12840676
116	0xbdbc98ea	-0.092088535
117	0x3dabb250	0.0838362
118	0x3e6f935c	0.23396057
119	0xbd87b9a7	-0.06627207

fc2.weight f4 [84, 120]
0	0x3c808425	0.015688011
1	0x3d960c54	0.0732657
2	0xbd8a71fc	-0.06760022
3	0x3c917d59	0.017759966
4	0xbdd37df6	-0.103267595
5	0x3e135e39	0.14391412
6	0xbda5f691	-0.081036694
7	0xbbb06307	-0.0053828987
8	0x3d9b4833	0.0758213
9	0xbd02c11f	-0.031922456
10	0xbc9a1274	-0.018807627
11	0xbe6f01fc	-0.233406
12	0x3c4ce193	0.012504953
13	0x3d81a033	0.06329384
14	0x3d9ca740	0.07649088
15	0x3dea7217	0.11447542
16	0x3ce9479d	0.02847653
17	0xbb31a4e7	-0.0027106346
18	0x3e03c3c2	0.12867644
19	0xbcef06cc	-0.029178046
20	0x3dfe07c0	0.12403822
21	0x3d1f9d6b	0.038968485
22	0x3ce61a7c	0.0280888
23	0x3d0d86e0	0.034552455
24	0xbdf92a45	-0.121662654
25	0xb5b170d0	-1.322036e-06
26	0x3d15342e	0.036426716
27	0xbd0d83df	-0.03454959
28	0x3cbd4fa4	0.023109265
29	0x3d476fde	0.04869067
30	0xbc66f158	-0.014095627
31	0xbdb89934	-0.09013596
32	0x3dd23284	0.10263541
33	0x3d96925f	0.07352137
34	0x3e1874e3	0.14888339
35	0xbda0d4a2	-0.078530565
36	0x3ca2df2d	0.01988181
37	0xbcb2982e	-0.02180108
38	0xbdda1020	-0.10647607
39	0x3c72c6b7	0.014817885
40	0xbe0cea50	-0.13761258
41	0xbe036445	-0.12831219
42	0xbd1f7bb4	-0.038936332
43	0xbd32c915	-0.043648798
44	0x3da00ff3	0.07815542
45	0x3dd4e7d1	0.10395778
46	0xbd6e8f6b	-0.058242243
47	0x3e0c8187	0.13721286
48	0x3dd74e26	0.105129525
49	0x3d7fe677	0.062475648
50	0x3d74807d	0.05969285
51	0xb56c20d1	-8.7964605e-07
52	0xbc6215dc	-0.013799157
53	0xbc62623e	-0.013817368
54	0xbb3b95fe	-0.0028623338
55	0xbe0c9a19	-0.13730659
56	0x3d37b7a0	0.044852853
57	0x3cee43ab	0.029085001
58	0x3c554130	0.01301603
59	0xbdaa4fdf	-0.083160155
60	0xbcdcd27c	-0.026955836
61	0xbd23d1c8	-0.039994985
62	0x3cd0fd28	0.02551134
63	0xbd0e00e2	-0.03466881
64	0x3d022915	0.03177746
65	0xbd2c5ed3	-0.04208262
66	0x3e08b81c	0.13351482
67	0x3e1eb021	0.15496875
68	0xbd764cc1	-0.060131792
69	0x3a99b036	0.0011725489
70	0x3cd3b6b8	0.025843963
71	0xbb214755	-0.0024609168
72	0xbdb870a8	-0.090058625
73	0x3da45b58	0.08025235
74	0x3c861e06	0.016371738
75	0xbcc684d6	-0.024233263
76	0xbde91c84	-0.11382392
77	0xbdcb917b	-0.099398576
78	0xbdc9417b	-0.098269425
79	0xbd501e65	-0.050810236
80	0xbd67189b	-0.05641995
81	0x3e00f5fb	0.12593834
82	0x3c3c8665	0.0115066515
83	0x3d0d4f76	0.034499608
84	0xbb854982	-0.0040676007
85	0xbe57c468	-0.21071017
86	0x3ca8e322	0.020616118
87	0x3d381901	0.04494572
88	0xbe2101cc	-0.15723342
89	0x3d6f3e44	0.05840899
90	0xbc7b1166	-0.015323972
91	0x3d35c1be	0.04437422
92	0x3d0f37c7	0.034965303
93	0xb9be9ffd	-0.00036358825
94	0x3d6c0524	0.05762209
95	0x3d7eb443	0.06218363
96	0x3db63a5e	0.088978514
97	0xbc0e3706	-0.008680111
98	0xbc748282	-0.014923694
99	0x3cda1228	0.026619986
100	0xbddd001c	-0.107910365
101	0xbe0c7db6	-0.1371983
102	0xbdb42e50	-0.08797896
103	0xbd8bf773	-0.068343066
104	0xbe0e6f23	-0.13909583
105	0xbdc533fc	-0.09629056
106	0xbd4f387d	-0.05059098
107	0xbdc215e7	-0.09476834
108	0xbcf90c6c	-0.030401431
109	0x3df1b495	0.118020214
110	0x3b7578dd	0.0037456073
111	0x3e149119	0.14508475
112	0x3dca5c69	0.09880907
113	0xbe0dbb5b	-0.13841002
114	0x3d30a135	0.04312249
115	0x3df1522e	0.11783253
116	0x3d85e579	0.06537909
117	0xbd57eff9	-0.05271909
118	0xbd088900	-0.03333378
119	0xbd8704d3	-0.06592717
120	0xbc452db3	-0.012034821
121	0xbd9c1d02	-0.0762272
122	0xbd958211	-0.07300199
123	0x3cbc0414	0.022951163
124	0xbe6f70a8	-0.23382819
125	0xbd9750b8	-0.07388443
126	0x3d801122	0.06253268
127	0x3d68edc9	0.056867395
128	0x3e04ff66	0.12988052
129	0x3d62c6ef	0.0553655
130	0x3d23a262	0.039949782
131	0x3da9184f	0.082565896
132	0x3d910022	0.070801035
133	0x3c3437d3	0.010999638
134	0x3d53e5e1	0.0517329
135	0xbc517cfe	-0.012786148
136	0x3df7a1b5	0.1209139
137	0x3d12e7b3	0.035865497
138	0x3de360d3	0.11102452
139	0x3cdeb3df	0.027185379
140	0x3dfd80e9	0.12378103
141	0x3d9eb352	0.077490464
142	0x3ae96e91	0.0017809441
143	0x3c2d9433	0.0105944155
144	0x3ca734c0	0.020410895
145	0x3de06a48	0.109577715
146	0x3d46dcdc	0.04855047
147	0x39b21fec	0.0003397459
148	0x3cec411e	0.028839644
149	0x3cf897f7	0.0303459
150	0x3d9ad1ee	0.07559572
151	0xbc902ef6	-0.017600518
152	0x3d514812	0.051094122
153	0xbda97cf7	-0.08275788
154	0xbc8b634a	-0.017015118
155	0x3d7709eb	0.060312193
156	0x3a994a2f	0.0011695082
157	0xbcefaa2a	-0.029255945
158	0xbc6fe7af	-0.01464264
159	0xbd8827ef	-0.06648242
160	0xbe1dd54f	-0.15413402
161	0xbdfe9d7b	-0.12432381
162	0xbc0ad72c	-0.008474153
163	0x3d80c1ff	0.06287002
164	0xbdab77f4	-0.083724886
165	0xbd407c33	-0.046993446
166	0xbcd54048	-0.026031628
167	0x3d46f9a7	0.04857793
168	0x3c85715b	0.016289404
169	0x3c3da9ba	0.0115761105
170	0xbd095bed	-0.033534933
171	0x3ceb9ce8	0.028761342
172	0x3c006563	0.0078366725
173	0xbb3c1d1a	-0.002870387
174	0x3d3c4780	0.045966625
175	0xbdb60366	-0.08887367
176	0xbdbc3987	-0.0919066
177	0xbddf823d	-0.10913513
178	0x3deeca8e	0.11659728
179	0xbd40471d	-0.04694282
180	0xbce00a49	-0.027348654
181	0xbce045ee	-0.027377095
182	0x3d89e44c	0.06732997
183	0xbd85b1c3	-0.06528046
184	0xbe2f4d81	-0.17119409
185	0x3d35d579	0.044393037
186	0x3d1aae35	0.037763793
187	0xbd759342	-0.05995489
188	0x3de27977	0.11058324
189	0xbe009bf9	-0.12559499
190	0xbc81ea0e	-0.015858676
191	0x3dec2715	0.11530892
192	0x3c367720	0.0111368
193	0x3d02d3c3	0.031940233
194	0x3d915477	0.070961885
195	0x3d898da7	0.06716471
196	0x37c9bbcd	2.4048519e-05
197	0xbdff01dd	-0.12451527
198	0x3de3c90b	0.1112233
199	0xbd0b24e6	-0.033970736
200	0x3e27870c	0.1636011
201	0xbd0886a8	-0.033331543
202	0xbe31e751	-0.17373396
203	0x3daea5d5	0.08527724
204	0x3db7032d	0.089361526
205	0x3dd6a855	0.104813255
206	0x3db75a0a	0.089527205
207	0x3d8e9415	0.06961838
208	0x3da3f770	0.08006179
209	0x3e0927b2	0.13394049
210	0xbc628566	-0.01382575
211	0xbced3cae	-0.028959598
212	0xbcf0bed7	-0.029387875
213	0xbc7e1330	-0.015507504
214	0xbcdf3495	-0.027246753
215	0xbda5b230	-0.08090627
216	0x3adff957	0.0017087859
217	0x3dcfc6bf	0.1014533
218	0x3cea0c59	0.028570341
219	0x3d770d09	0.060315166
220	0xb8d34eec	-0.000100759644
221	0xbbf1a639	-0.0073745516
222	0xbc8d3b30	-0.017240137
223	0x3b42b4ad	0.0029709742
224	0x3df725c5	0.12067751
225	0xbc69b609	-0.014264592
226	0xbddf6652	-0.10908188
227	0x3cd445e9	0.025912242
228	0xbd8c1903	-0.06840708
229	0x3c78f2db	0.01519462
230	0x3c2959c9	0.010336348
231	0xbe1464bd	-0.14491554
232	0xbd27427f	-0.0408349
233	0x3e01d149	0.12677492
234	0xbd9815f3	-0.074260615
235	0x3d50df52	0.050994225
236	0x3d853e11	0.06505979
237	0x3d70dab9	0.05880234
238	0x3df41e27	0.119198136
239	0xbd418b08	-0.04725173
240	0x3d13d9d7	0.03609642
241	0x3de9f5a1	0.11423803
242	0x3b035ba9	0.0020043647
243	0xbdeb77d5	-0.114974655
244	0xbcced611	-0.02524856
245	0xbb03dc8e	-0.0020120475
246	0x3e776fec	0.24163789
247	0x3e42e09f	0.19030999
248	0xbb3a6b76	-0.00284454
249	0x3d78a0e2	0.060700305
250	0x3d343f0e	0.044005446
251	0x3e01272a	0.12612596
252	0x3d899d02	0.067194
253	0xbd8670ce	-0.065644845
254	0x3df5802b	0.11987337
255	0xbe326f5f	-0.17425297

fc2.bias f4 [84]
0	0xbe4c8b0d	-0.19974919
1	0x3e4baee5	0.19890936
2	0xbe0c8b9e	-0.13725135
3	0x3ccde2ac	0.0251325
4	0xbc1af910	-0.009458795
5	0x3daf9b8b	0.08574589
6	0x3d3643ef	0.04449838
7	0xbd10eb89	-0.035380874
8	0x3d19fd4f	0.03759509
9	0xbd32ab62	-0.043620475
10	0x3e0a5fa8	0.13513052
11	0x3e8a6b2c	0.2703489
12	0x3d7b9d27	0.06142917
13	0xbe20a210	-0.15686822
14	0x3c470771	0.01214777
15	0x3cacbdbf	0.021086572
16	0x3e8397e9	0.25701836
17	0x3e49684f	0.19668697
18	0xbcbdc473	-0.023164963
19	0x3d20f8eb	0.039299887
20	0x3e436d7e	0.19084737
21	0x3e867058	0.26257586
22	0xbda1436b	-0.07874187
23	0xbd029ccd	-0.031887818
24	0xbd23fb23	-0.040034425
25	0x3dd7edc0	0.10543394
26	0x3e3ad21c	0.18244213
27	0x3d30068e	0.042975
28	0xbcdaa62b	-0.026690563
29	0xbe0e0a33	-0.13871078
30	0x3da7295e	0.08162187
31	0x3e47fbb2	0.19529608
32	0x3d51d96d	0.051232744
33	0x3e39aaf5	0.18131621
34	0xbd2ecbc9	-0.042674813
35	0x3e8f48a7	0.27985117
36	0xbe1f7193	-0.15570669
37	0xbdb89d77	-0.09014409
38	0x3e7366d7	0.23769699
39	0x3e3365c5	0.17519291
40	0xbb4e0a3c	-0.0031439206
41	0x3d74715e	0.059678428
42	0x3dc08519	0.09400386
43	0x3df62a1b	0.1201975
44	0xbc2f434b	-0.010697196
45	0xbe073356	-0.13203177
46	0x3d58bba9	0.05291334
47	0x3d960835	0.07325784
48	0x3cd14a92	0.025548253
49	0xbd4b0ca8	-0.049572617
50	0xbd288ae7	-0.041148093
51	0xbd67fdcb	-0.05663852
52	0x3e1e7611	0.15474726
53	0xbe6dc4a6	-0.23219547
54	0xbe86305d	-0.26208773
55	0x3e2c9d1d	0.16856809
56	0x3d1e8ef9	0.038710568
57	0x3e704337	0.2346314
58	0x3da2bdb1	0.07946337
59	0x3e5761f0	0.21033454
60	0x3c6a357a	0.014294976
61	0xbe0b3bfa	-0.13597098
62	0xbd1baf7f	-0.038009163
63	0x3e8d040b	0.27542147
64	0xbd443ec6	-0.047911428
65	0x3c8ea760	0.017413795
66	0x3e266013	0.16247587
67	0xbd8f70dc	-0.07003948
68	0x3d9af455	0.07566134
69	0xbdb8e751	-0.09028495
70	0x3ebedbd9	0.37277105
71	0xbe47fe2b	-0.19530551
72	0xbd6f3591	-0.058400694
73	0x3d925b60	0.07146335
74	0xbe34758f	-0.1762297
75	0xbd9367e4	-0.0719755
76	0xbd21ee53	-0.039533924
77	0x3dc8c857	0.09803837
78	0x3da3cf1a	0.07998486
79	0xbe145ec2	-0.14489272
80	0xbd77f742	-0.060538538
81	0x3e9357ac	0.28777826
82	0xbd41a524	-0.04727663
83	0xbd788016	-0.060669027

fc3.weight f4 [10, 84]
0	0xbe98ae0d	-0.2982029
1	0xbe233ada	-0.15940419
2	0xbdc64f40	-0.096830845
3	0x3e7763f9	0.2415923
4	0xbebe95a3	-0.3722354
5	0x3ddee4f1	0.10883511
6	0xbe7baef8	-0.24578464
7	0x3ec9a5ba	0.39384252
8	0xbe038297	-0.12842785
9	0x3e88e0c6	0.2673399
10	0xbe8bc1d2	-0.2729631
11	0x3dc1b202	0.094577804
12	0x3d1f4254	0.038881615
13	0x3e824b3b	0.2544802
14	0x3efe1327	0.49623987
15	0xbe7ae05c	-0.24499649
16	0xbe91d5a6	-0.28483313
17	0x3e8d7dc9	0.2763503
18	0x3e850cf8	0.25986457
19	0x3dc65ecf	0.09686052
20	0x3c9903ce	0.018678572
21	0x3ed501c2	0.41602904
22	0xbd6492bb	-0.055803996
23	0xbe4b7ccb	-0.19871823
24	0x3e66a6a7	0.2252451
25	0xbd1ccb4d	-0.03827982
26	0xbe46e751	-0.19424178
27	0xbe61b7ae	-0.22042724
28	0x3eb83127	0.35975
29	0x3d1a44bb	0.037663203
30	0x3d0e4613	0.034734797
31	0xbe5e74a2	-0.2172418
32	0xbe4e25bb	-0.2013158
33	0xbdd1127b	-0.10208603
34	0x3ea217cd	0.31658784
35	0xbc547c89	-0.012969145
36	0x3e056e0e	0.13030264
37	0x3d796c7e	0.06089448
38	0x3dd501c5	0.10400728
39	0xbd974548	-0.07386261
40	0xbe1cc201	-0.15308382
41	0xbd00e55d	-0.031468738
42	0xbdb48da1	-0.08816076
43	0x3e81270d	0.25225106
44	0xbe3253c0	-0.1741476
45	0xbde04114	-0.10949913
46	0xbe973757	-0.29534408
47	0x3c724780	0.014787555
48	0xbe62314c	-0.22089118
49	0xbdffb229	-0.12485153
50	0xbc6c6cbf	-0.014430224
51	0x3d461a52	0.048364945
52	0x3e94699e	0.2898683
53	0x3ddc4749	0.10755784
54	0x3e4ff08b	0.20306604
55	0xbebe6ec9	-0.37193897
56	0xbd8038df	-0.06260847
57	0xbd862b1e	-0.06551193
58	0xbded629f	-0.11591076
59	0xbe923f77	-0.28564045
60	0xbe1dc13c	-0.15405744
61	0x3d911721	0.070844896
62	0xbe68f5fb	-0.22750084
63	0xbe655a9f	-0.2239785
64	0xbc0a149a	-0.008427763
65	0xbdb76ff4	-0.089569
66	0x3f0693d6	0.5256933
67	0xbea4c11e	-0.32178587
68	0x3e8fb0ec	0.28064668
69	0xbdbcdd59	-0.09221906
70	0x3d32a8ee	0.043618135
71	0x3e7e82ff	0.24854659
72	0x3e60c7fc	0.21951288
73	0x3d8caf66	0.06869392
74	0x3e527a97	0.20554577
75	0xbe1bf7a9	-0.15231194
76	0x3d06d0ab	0.032913845
77	0xbe089e0f	-0.13341545
78	0xbe3f7188	-0.18695652
79	0x3e106536	0.14101109
80	0x3e854a22	0.2603312
81	0x3e2eca8d	0.17069454
82	0x3d256070	0.040375173
83	0x3e8175d9	0.25285223
84	0x3e7a7ca5	0.2446161
85	0xbea592a2	-0.32338434
86	0x3f2fe084	0.6870196
87	0xbe4189de	-0.18900248
88	0x3ee3f75f	0.44524667
89	0xbd556bea	-0.052104868
90	0xbdaac673	-0.083386324
91	0xbe68da04	-0.22739416
92	0xbe2dce9c	-0.16973346
93	0xbeac39fe	-0.33637995
94	0xbe878fd0	-0.26476908
95	0xbe242cb0	-0.16032672
96	0xbea29150	-0.3175149
97	0xbc420925	-0.011843001
98	0x3dcc4f72	0.099760905
99	0x3dd2439c	0.10266802
100	0xbd5f546e	-0.054523878
101	0xbe3fc2c6	-0.18726644
102	0x3df195b1	0.117961295
103	0x3d544d8b	0.051831763
104	0xbe652d3c	-0.22380537
105	0xbe966ccf	-0.2937989
106	0x3e7fb748	0.2497226
107	0x3d2bf8b7	0.04198524
108	0x3ec435a2	0.3832217
109	0xbe27400d	-0.16333027
110	0x3e348805	0.17630012
111	0xbd9f8e05	-0.0779076
112	0x3e4a67a2	0.19766095
113	0x3e0e2d28	0.13884413
114	0xbe98bf55	-0.29833475
115	0xbe157f7e	-0.14599416
116	0x3bd6fb89	0.006560747
117	0xbe22a501	-0.15883256
118	0xbe03f042	-0.1288462
119	0xbe505b44	-0.20347315
120	0x3ebc5a00	0.36787415
121	0x3f04f079	0.5192943
122	0xbe32dea4	-0.17467743
123	0xbde13e50	-0.10998213
124	0x3e2a66af	0.16640733
125	0xbc35d354	-0.011097748
126	0xbec5993d	-0.38593474
127	0xbe602fe9	-0.21893276
128	0x3cc23f5d	0.023711855
129	0x3e2c22b4	0.16810113
130	0xbe00d636	-0.12581715
131	0xbeb4085b	-0.35162625
132	0x3d06984d	0.03286009
133	0xbde8cd68	-0.11367303
134	0xbcf2a064	-0.029617496
135	0xbbba738e	-0.0056900447
136	0x3e3fe38d	0.18739147
137	0x3ec8e5d9	0.3923786
138	0x3ea33975	0.31879774
139	0x3d922f14	0.07137886
140	0xbd473ffd	-0.04864501
141	0x3c496049	0.012291023
142	0xbe4d9a21	-0.20078327
143	0xbe4b00fe	-0.19824597
144	0xbca9db31	-0.020734401
145	0x3dda90b3	0.106721304
146	0xbeb3cdcf	-0.35117957
147	0xbe824a18	-0.25447154
148	0xbdfc8d25	-0.12331609
149	0xbda5fa7a	-0.08104415
150	0xbe81dcdf	-0.25363824
151	0xbd68efb7	-0.056869235
152	0x3c868a7f	0.016423462
153	0x3abb29ae	0.0014279389
154	0xbea128ef	-0.31476542
155	0x3d7904f1	0.060795728
156	0x3de71377	0.112830095
157	0xbde0f9d2	-0.109851494
158	0x3e897e76	0.26854295
159	0x3c87c72c	0.016574465
160	0xbde00ba4	-0.1093972
161	0x3b5600e8	0.0032654349
162	0x3e1b6fa1	0.15179302
163	0x3ed4c915	0.41559663
164	0xbde2d0c6	-0.110749766
165	0x3c2a14de	0.010380952
166	0x3dc408ff	0.09572028
167	0xbe52e5bf	-0.20595454
168	0x3ceaad9d	0.028647238
169	0x3e7399ab	0.23789088
170	0x3e509e22	0.20372823
171	0x3bab96f0	0.005236499
172	0xbe906be8	-0.28207326
173	0xbe60ebe6	-0.21964988
174	0xbe20f9af	-0.15720247
175	0x3df0f6ad	0.117658
176	0xbdc82fe8	-0.097747624
177	0x3ebc50ba	0.3678034
178	0x3e72cb06	0.2371026
179	0x3da4eece	0.08053361
180	0x3e769d75	0.24083503
181	0x3f2691c1	0.6506615
182	0x3d428762	0.047492392
183	0x3e8dfb4a	0.2773078
184	0xbe704586	-0.23464021
185	0xbe99ab3b	-0.3001345
186	0xbd051ffa	-0.0325012
187	0xbde48097	-0.11157339
188	0x3ea9b1db	0.33143505
189	0x3e5ef61a	0.21773568
190	0x3d1796df	0.037009116
191	0xbe12b77a	-0.14327803
192	0xbd29b8de	-0.04143607
193	0xbe72aa52	-0.23697785
194	0xbefda7b1	-0.49542
195	0x3e8e1ff7	0.27758762
196	0x3cdd3054	0.027000584
197	0x3e8fc434	0.2807938
198	0xbe38eef0	-0.18059897
199	0xbe95a736	-0.29229134
200	0x3e82d87d	0.25555792
201	0x3eb37359	0.3504894
202	0xbea6f127	-0.3260586
203	0xbd782ef4	-0.060591653
204	0x3de4a34e	0.111639604
205	0x3dcc9ec6	0.09991221
206	0x3df4626f	0.11932837
207	0xbcea08f3	-0.02856872
208	0xbc7a1456	-0.0152636375
209	0xbce0d310	-0.027444392
210	0xbd756f92	-0.059920855
211	0xbd2e625e	-0.04257428
212	0xbe2c41e1	-0.16822006
213	0x3eb56d1d	0.3543481
214	0x3eb2cc8d	0.34921685
215	0x3da819b0	0.082080245
216	0x3df8556d	0.12125669
217	0xbe7f0b4b	-0.24906652
218	0x3d9b0743	0.075697444
219	0x3eaedaab	0.34151205
220	0xbd86cb01	-0.06581689
221	0xbe907fca	-0.28222495
222	0x3e26fdc5	0.16307743
223	0xbe1e8cf2	-0.15483454
224	0x3de5c9a4	0.112201005
225	0x3e0c0fb3	0.13677864
226	0x3e2f7762	0.17135385
227	0x3e0e09e0	0.13870955
228	0x3e9d30ee	0.30701393
229	0x3d314280	0.04327631
230	0xbb8d8f63	-0.0043200715
231	0xbdcba422	-0.09943415
232	0x3ec7f39e	0.39053053
233	0xbdd72349	-0.10504777
234	0x3e833ba8	0.25631452
235	0x3defe587	0.11713701
236	0x3e7d436d	0.24732752
237	0x3ea01697	0.31267235
238	0x3e5a80fb	0.21338265
239	0x3d1a513b	0.037675124
240	0xbebd3af9	-0.36959055
241	0xbe6c343d	-0.23066802
242	0x3e347756	0.17623648
243	0x3e47afb2	0.19500616
244	0x3e3a668f	0.18203185
245	0x3e946375	0.2898213
246	0xbe91288d	-0.2835125
247	0xbdda57bf	-0.106612675
248	0xbe9c0bc5	-0.3047773
249	0xbe870bde	-0.2637624
250	0xbce54f51	-0.027991923
251	0xbe3ceabb	-0.18448918
252	0x3df28b55	0.11842982
253	0x3e68a0ff	0.22717665
254	0xbe6040b9	-0.2189969
255	0xbdea20cf	-0.11432039

fc3.bias f4 [10]
0	0x3c864950	0.01639238
1	0xbef56635	-0.4792954
2	0xbdc5b1a4	-0.09653023
3	0x3dae38c7	0.08506923
4	0x3f1fc776	0.6241373
5	0x3d61a7fb	0.05509184
6	0x3d718753	0.058966946
7	0xbe4c181c	-0.19931072
8	0x3ec659a8	0.38740277
9	0xbe661c7c	-0.22471803
